…
host:8080/"},"executionInfo":{"status":"ok","timestamp":1609416283028,"user_tz":-180,"elapsed":1267,"user":{"displayName":"Владимир Четвериков","photoUrl":"","userId":"14128665642018974813"}},"outputId":"e00c66f2-58f5-4394-bf95-4b9aadec7e98"},"source":["gan = GAN()"],"execution_count":null,"outputs":[{"output_type":"stream","text":["Model: \"sequential\"\n","_________________________________________________________________\n","Layer (type)                 Output Shape              Param #   \n","=================================================================\n","flatten (Flatten)            (None, 784)               0         \n","_________________________________________________________________\n","dense (Dense)                (None, 512)               401920    \n","_________________________________________________________________\n","leaky_re_lu (LeakyReLU)      (None, 512)               0         \n","_________________________________________________________________\n","dense_1 (Dense)              (None, 256)               131328    \n","_________________________________________________________________\n","leaky_re_lu_1 (LeakyReLU)    (None, 256)               0         \n","_________________________________________________________________\n","dense_2 (Dense)              (None, 1)                 257       \n","=================================================================\n","Total params: 533,505\n","Trainable params: 533,505\n","Non-trainable params: 0\n","_________________________________________________________________\n","Model: \"sequential_1\"\n","_________________________________________________________________\n","Layer (type)                 Output Shape              Param #   \n","=================================================================\n","dense_3 (Dense)              (None, 256)               25856     \n","_________________________________________________________________\n","leaky_re_lu_2 (LeakyReLU)    (None, 256)               0         \n","_________________________________________________________________\n","batch_normalization (BatchNo (None, 256)               1024      \n","_________________________________________________________________\n","dense_4 (Dense)              (None, 512)               131584    \n","_________________________________________________________________\n","leaky_re_lu_3 (LeakyReLU)    (None, 512)               0         \n","_________________________________________________________________\n","batch_normalization_1 (Batch (None, 512)               2048      \n","_________________________________________________________________\n","dense_5 (Dense)              (None, 1024)              525312    \n","_________________________________________________________________\n","leaky_re_lu_4 (LeakyReLU)    (None, 1024)              0         \n","_________________________________________________________________\n","batch_normalization_2 (Batch (None, 1024)              4096      \n","_________________________________________________________________\n","dense_6 (Dense)              (None, 784)               803600    \n","_________________________________________________________________\n","reshape (Reshape)            (None, 28, 28, 1)         0         \n","=================================================================\n","Total params: 1,493,520\n","Trainable params: 1,489,936\n","Non-trainable params: 3,584\n","_________________________________________________________________\n"],"name":"stdout"}]},{"cell_type":"code","metadata":{"id":"QdgeeExSHSkG","colab":{"base_uri":"https://localhost:8080/"},"executionInfo":{"status":"ok","time
…
